YOLOv8-training/best_orientation.pth (torch, 107062 bytes, 10 tensors)

features.0.weight f4 [16, 3, 3, 3]
0	0x3d98fcc4	0.07470086
1	0xbca39d86	-0.019972574
2	0xbd8dba08	-0.06920248
3	0x3e40cb4b	0.1882755
4	0x3e3bb3b3	0.18330269
5	0x3d941bbe	0.07231854
6	0x3d1effd7	0.038818207
7	0x3d91db77	0.07121938
8	0x3e573ac9	0.21018519
9	0xbd8e4ca6	-0.06948213
10	0xbe0e8dde	-0.13921306
11	0xbd417f92	-0.0472408
12	0xbdfd8933	-0.12379684
13	0x3d1ba297	0.037996855
14	0xbe1fc178	-0.15601146
15	0x3ca1e71f	0.019763527
16	0xbc8d0710	-0.017215282
17	0x3d8fcab5	0.07021085
18	0x3e33a198	0.17542112
19	0xbe38434c	-0.17994422
20	0xbb89385f	-0.004187628
21	0xbdcd479b	-0.10023423
22	0x3bf013d3	0.007326582
23	0xbe278c71	-0.16362168
24	0x3e09db4a	0.13462558
25	0x3e0bc23c	0.13648313
26	0xbc812f61	-0.015769662
27	0x3d0d4d39	0.034497473
28	0x3e34faeb	0.17673843
29	0x3c98749c	0.018610291
30	0x3cd716c5	0.026255975
31	0x3e0a7ddc	0.13524574
32	0xbd295538	-0.041341037
33	0xbcbd7e31	-0.023131462
34	0x3e43e93b	0.19131939
35	0x3d10f0b9	0.03538582
36	0x3c90be0e	0.01766875
37	0xbd69a88e	-0.057045512
38	0xbdebc7b7	-0.11512702
39	0x3cd6d174	0.026222922
40	0x3e081950	0.13290906
41	0x3dcb8a5a	0.09938498
42	0xbdb93d03	-0.0904484
43	0x3cb6a8ca	0.022297282
44	0x3cbcc679	0.023043858
45	0xbd71c258	-0.05902323
46	0x3d3e1090	0.046402514
47	0xbd6bf88d	-0.057610083
48	0xbd1fda3e	-0.03902649
49	0x3ce43239	0.02785598
50	0xbdbd3130	-0.092378974
51	0xbdd3910d	-0.103304006
52	0x3e013df4	0.1262129
53	0xbde44665	-0.11146239
54	0xbe478592	-0.19484547
55	0x3e215b69	0.15757526
56	0xbd4e317a	-0.050340153
57	0x3d102852	0.035194702
58	0xbe2f34e6	-0.17110023
59	0x3cae8975	0.021305779
60	0xbce247d5	-0.027622143
61	0x3da140cc	0.07873687
62	0x3b9d594f	0.004801906
63	0x3dd16373	0.102240466
64	0x3de64811	0.11244214
65	0x3df0631b	0.11737653
66	0x3b8befd9	0.0042705354
67	0x3e282564	0.16420513
68	0xbe23b044	-0.15985209
69	0x3da5a567	0.080881886
70	0xbe1389c4	-0.14408022
71	0xbb2d41f0	-0.0026437007
72	0x3d909a58	0.07060689
73	0x3dfc7941	0.12327815
74	0x3d0b8388	0.034060985
75	0x3e2ab609	0.16671003
76	0xbe096215	-0.13416322
77	0x3e3e4a9c	0.18583149
78	0x3e3902d6	0.18067488
79	0x3df52465	0.11969832
80	0xbc834564	-0.016024299
81	0xbd5913aa	-0.05299727
82	0x3da1c1aa	0.078982666
83	0xbdb5a24e	-0.08868848
84	0xbd99a94f	-0.07502996
85	0xbdaf5eab	-0.08562978
86	0xbd8c0a87	-0.068379454
87	0xbd5e3210	-0.054246962
88	0x3df80f0c	0.12112245
89	0xbe1b1da2	-0.15148023
90	0x3dcc34e1	0.09971023
91	0xbd4ed56b	-0.0504965
92	0xbd821fa1	-0.06353689
93	0x3d22a0de	0.039704196
94	0x3d626796	0.05527457
95	0x3cb4bdcb	0.022063157
96	0xbdeb01ab	-0.114749275
97	0x3e019959	0.12656154
98	0x3c897ca7	0.016783072
99	0x3e0a2f55	0.13494618
100	0x3dce2663	0.100659154
101	0xbde11a49	-0.109913416
102	0x3e03c7f9	0.12869252
103	0xbe10cca1	-0.1414056
104	0x3db9041e	0.090339884
105	0x3e16c50e	0.14723608
106	0x3da0e820	0.07856774
107	0xbdee7970	-0.11644256
108	0x3dbe7494	0.09299579
109	0xbde6b711	-0.11265386
110	0xbdb63c38	-0.088982046
111	0x3c24fd1c	0.010070112
112	0xbdb05369	-0.08609659
113	0x393c507d	0.00017959061
114	0x3e3ceb8a	0.18449226
115	0x3e001440	0.12507725
116	0x3d5fe7f5	0.05466457
117	0x3d8f2c79	0.06990904
118	0xbcc39342	-0.023873929
119	0xbdadb873	-0.084824465
120	0xbd364b12	-0.044505186
121	0xbdd30953	-0.10304513
122	0x3de01b33	0.10942688
123	0xbd2d2da0	-0.04227984
124	0x3e46f644	0.1942988
125	0x3d77c533	0.0604908
126	0x3ccec49b	0.025240233
127	0xbe2037f8	-0.1564635
128	0x3d11a583	0.035558235
129	0x3df027ed	0.11726365
130	0xbd0a8438	-0.0338175
131	0x3e46b643	0.19405465
132	0x3c879190	0.016548902
133	0x3e0fdaa2	0.14048246
134	0xbe20decf	-0.15709995
135	0x3d5b5032	0.053543277
136	0xbe44a6ea	-0.19204298
137	0x3de3b3f5	0.111183085
138	0x3e057e2b	0.1303641
139	0xbdcbd974	-0.09953585
140	0xbd6a7dda	-0.057248928
141	0x3deab24a	0.11459787
142	0xbdca959b	-0.09891816
143	0xbc994a0d	-0.018712068
144	0x3e0168b0	0.12637591
145	0xbd9dcfa6	-0.077056214
146	0x3dde7d90	0.10863793
147	0xbc1970e4	-0.009365294
148	0xbde09000	-0.10964966
149	0x3e473484	0.19453627
150	0x3c130d63	0.00897536
151	0xbde8c061	-0.11364818
152	0xbd193f99	-0.037414167
153	0x3d6195f2	0.05507464
154	0x3e43b891	0.19113375
155	0xbe112822	-0.14175466
156	0xbd4e5813	-0.050376963
157	0xbdca8824	-0.09889248
158	0x3c7f0ab6	0.0155665185
159	0x3e6cc3c7	0.23121558
160	0xbd22ea0f	-0.039773997
161	0x3e095859	0.13412608
162	0x3e1c550b	0.15266816
163	0xbd9d8de9	-0.07693083
164	0x3e12acd0	0.14323735
165	0xbd8f8d3e	-0.07009362
166	0x3b7e5364	0.003880703
167	0x3cf931ba	0.03041922
168	0x3e0276ba	0.12740603
169	0x3dbef4af	0.093240134
170	0x3d24f576	0.040273152
171	0x3e55fa04	0.20896155
172	0x3d1edafc	0.03878306
173	0x3d87a3ae	0.06623016
174	0xbe28e86e	-0.16494915
175	0xbd8d8321	-0.069097765
176	0x3e0ee298	0.13953626
177	0xbe13bb88	-0.14427006
178	0x3df0214b	0.117251
179	0xbc98beed	-0.018645728
180	0xbd4a519b	-0.04939423
181	0x3ce76d2e	0.028250303
182	0x3e3ffbeb	0.18748443
183	0xbe05bf65	-0.13061292
184	0x3d2e440a	0.042545356
185	0x3d6be35c	0.057589874
186	0x3d870985	0.065936126
187	0xbe22b30e	-0.15888616
188	0xbdb29fe4	-0.08721903
189	0xbd571d15	-0.05251797
190	0x3e3287f2	0.17434672
191	0x3d014a19	0.031564806
192	0xbe0567cc	-0.13027877
193	0x3d73dc65	0.059536356
194	0x3cd91c00	0.02650261
195	0xbe1fdc77	-0.15611444
196	0x3e2aab86	0.16666993
197	0xbd51e55c	-0.051244125
198	0x3c4d19ae	0.01251833
199	0x3e442a5c	0.19156784
200	0x3d5bd46b	0.053669374
201	0xbe0839a4	-0.13303238
202	0xbe3918c8	-0.1807586
203	0xbd795ce2	-0.060879596
204	0x3d6bfaf4	0.057612374
205	0xbe33ab3b	-0.17545788
206	0xbe023043	-0.12713723
207	0xbd84e334	-0.06488648
208	0xbc84939f	-0.016183672
209	0xbde42868	-0.111405194
210	0xbbdf0bae	-0.0068068122
211	0x3d538f3b	0.051650267
212	0x3e1edacf	0.15513156
213	0xbe08e8e3	-0.13370089
214	0x3e027fb2	0.12744024
215	0x3d0c7e8e	0.03430038
216	0x3c58bf3c	0.013229188
217	0xbe13849b	-0.14406054
218	0xbe3e4e40	-0.18584538
219	0x3e033efc	0.12816995
220	0x3cd4052a	0.025881369
221	0x3ddf85cb	0.10914191
222	0x3d8dbaf3	0.06920423
223	0xbe369c29	-0.17833008
224	0xbe027e50	-0.12743497
225	0xbe34a623	-0.17641501
226	0x3e0a5969	0.1351067
227	0x3c38bad3	0.011275011
228	0x3c9876d4	0.01861135
229	0x3dcd250b	0.10016831
230	0x3e2a674b	0.16640966
231	0x3d87d096	0.066315815
232	0xbe41d0b0	-0.18927264
233	0x3e017c60	0.12645102
234	0x3e3f0d85	0.18657501
235	0xbddb7b9d	-0.10716937
236	0x3e40ae9e	0.18816611
237	0x3e041951	0.12900282
238	0xbdebd91a	-0.11516018
239	0x3df693f0	0.120399356
240	0x3d45a246	0.04825046
241	0xbcd5af92	-0.026084695
242	0x3d52bbdf	0.0514487
243	0x3e00df20	0.12585115
244	0xbd17fa84	-0.037104145
245	0x3d0bb311	0.034106318
246	0x3e2653e6	0.16242942
247	0x3c2cc06a	0.010543922
248	0xbd442ada	-0.04789243
249	0xbe006c49	-0.12541308
250	0x3c08fe7d	0.008361456
251	0xbd8208bd	-0.06349323
252	0xbc9fefc2	-0.019523505
253	0xbd926f3d	-0.07150123
254	0x3e27f22b	0.16400973
255	0x3e15d825	0.14633234

features.0.bias f4 [16]
0	0x3d9daf02	0.07699396
1	0x3e35b1b3	0.17743568
2	0x3e244755	0.16042836
3	0x3e338350	0.1753056
4	0xbdc39006	-0.09548955
5	0x3deac4cb	0.114633165
6	0xbe115326	-0.14191875
7	0xbdac9542	-0.08426906
8	0x3d627fa9	0.055297527
9	0xbd9ee523	-0.07758548
10	0x3d245532	0.04012031
11	0x3dbe3585	0.09287552
12	0x3db88e8d	0.090115644
13	0x3e01dcf6	0.12681946
14	0xbdd62e0e	-0.10458003
15	0x3e15f225	0.14643152

features.2.weight f4 [32, 16, 3, 3]
0	0x3da22866	0.07917862
1	0x3d3cede0	0.046125293
2	0xbcc566e6	-0.024096917
3	0xbd658ea5	-0.05604424
4	0xbda98836	-0.08277933
5	0x3d8b1d84	0.06792739
6	0xbd1d3053	-0.038376164
7	0x3d841daf	0.06450974
8	0xbc3c264a	-0.011483738
9	0x3d8fbb48	0.07018143
10	0x3cb2134a	0.021737713
11	0xbb74de29	-0.0037363863
12	0xbcdb35c6	-0.02675904
13	0xbb34f62e	-0.0027612555
14	0xbdb26d25	-0.08712224
15	0x3d875f45	0.06609968
16	0x3c29ec43	0.010371271
17	0x3d03c28d	0.03216796
18	0xbceb4d18	-0.028723285
19	0x3dc1ea08	0.09468466
20	0x3cd5f52d	0.026117885
21	0x3db32f4b	0.08749255
22	0xbd06d818	-0.032920927
23	0x3cb199e2	0.021679822
24	0xbc86543b	-0.016397586
25	0x3d89a080	0.06720066
26	0xbcae7f35	-0.021300891
27	0x3d5d9c9d	0.054104436
28	0x3d87e414	0.06635299
29	0xbd1f6806	-0.038917564
30	0x3db8c827	0.09022551
31	0x3df9a021	0.12188745
32	0xbd126401	-0.035739902
33	0xbd05830d	-0.032595683
34	0xbce9e3b4	-0.02855096
35	0x3c838693	0.01605538
36	0x3d13edbe	0.0361154
37	0xbc81cee0	-0.015845716
38	0x3d441168	0.047868162
39	0xbd95f5b1	-0.073222525
40	0xbc6fdcc5	-0.014640038
41	0xbdcab99a	-0.09898682
42	0xbde5b9af	-0.11217057
43	0x3bc3b140	0.0059720576
44	0x3d585fee	0.05282586
45	0x3d04b6dd	0.032400955
46	0xbbea2c5d	-0.007146402
47	0x3d4f0319	0.050540064
48	0x3bf8452b	0.007576605
49	0x3cd268f6	0.025684815
50	0xbd1e4b8d	-0.03864627
51	0xbd3ef01e	-0.046615712
52	0x3d8118c5	0.063035525
53	0x3c379c0a	0.011206636
54	0x3d86cdfb	0.065822564
55	0xbcbea5fe	-0.02327251
56	0x3caa503c	0.020790212
57	0x3d2b51b7	0.041825976
58	0x3d647c35	0.055782516
59	0xbb2f37ae	-0.0026736069
60	0x3d3423d8	0.043979496
61	0xbd1fd044	-0.039016977
62	0xbd76712e	-0.06016653
63	0xbdd4c6dc	-0.10389492
64	0xbd5442ee	-0.05182164
65	0xbcf49e97	-0.029860778
66	0xbd8a7f3f	-0.067625515
67	0x3d33e230	0.04391688
68	0xbd9021ce	-0.07037698
69	0x3d4b05ae	0.049565963
70	0xbd9fefcd	-0.0780941
71	0xbd614e55	-0.055006344
72	0x3b4ddfc2	0.0031413888
73	0x3d5545ad	0.0520684
74	0x3d5bf994	0.053704813
75	0xbd631540	-0.055440187
76	0xbd1e81d7	-0.038698044
77	0xbc62ac46	-0.0138350185
78	0xbd279060	-0.04090917
79	0x3ce92e11	0.028464349
80	0x3d532dc8	0.051557332
81	0x3d3cfb6c	0.046138212
82	0x3d36ddaa	0.04464499
83	0x3d6d44c4	0.057926908
84	0xbd79a87f	-0.060951706
85	0xbd967556	-0.07346599
86	0xbd7a4035	-0.06109639
87	0x3d6aef63	0.057357203
88	0xbd87f532	-0.06638564
89	0x3caca23e	0.021073457
90	0xbd74f739	-0.059806082
91	0xba1b6e93	-0.00059292576
92	0xbd4de142	-0.05026365
93	0xbb41de6a	-0.0029582032
94	0x3d84267a	0.06452651
95	0x3db5ec28	0.08882934
96	0xbcab7c69	-0.020933347
97	0xbd2635d9	-0.040578697
98	0x3c59ea79	0.013300532
99	0x3d6b0f1f	0.057387467
100	0xbd89c4e8	-0.0672701
101	0xbc7b94fb	-0.015355344
102	0xbd75c13b	-0.059998732
103	0xbc92ee87	-0.017936004
104	0x3da32777	0.07966512
105	0x3d6a1fb9	0.05715916
106	0x3cf2796b	0.029598912
107	0x3cc37a6f	0.023862092
108	0xbcd61f15	-0.026137868
109	0xbd27d101	-0.040970806
110	0x3d18dbb5	0.037318904
111	0xbd8851ce	-0.06656228
112	0xbd6c7f2b	-0.057738464
113	0xbd2a3993	-0.041558813
114	0xbd9920e1	-0.07476974
115	0x3d1ac7b7	0.03778812
116	0xbd190267	-0.037355807
117	0x3ded2d49	0.11580903
118	0xbd0a4c83	-0.033764374
119	0x3c7a5099	0.015278005
120	0x3d8cb418	0.06870288
121	0xbd31bd0f	-0.04339319
122	0x3db5c371	0.08875168
123	0x3dacbd7c	0.08434579
124	0xbd406f87	-0.04698136
125	0x3dd3ebcb	0.10347708
126	0xbdf0f0c1	-0.1176467
127	0xbd06e532	-0.03293342
128	0xb7591ab8	-1.2940429e-05
129	0xbdc5eef7	-0.096647196
130	0xbda171fd	-0.0788307
131	0xbda761fd	-0.08172987
132	0xbd3c649d	-0.04599439
133	0xbd74d276	-0.059771024
134	0xbd2cde52	-0.04220421
135	0xbc71f6b9	-0.014768296
136	0xbd3c3b0f	-0.04595476
137	0xbd060526	-0.032719754
138	0x3d03edc2	0.032209165
139	0x3dc8ad32	0.097986594
140	0x3dba93d3	0.091102265
141	0x3b96410e	0.004585392
142	0x3d9e22ff	0.07721519
143	0x3c99d043	0.018776065
144	0x3c46966a	0.012120822
145	0xbd9205e9	-0.071300335
146	0xbd958bae	-0.073020324
147	0x3d86a410	0.06574261
148	0x3b60ff56	0.003433188
149	0xbc496159	-0.012291276
150	0xbc76dbf4	-0.015067089
151	0xbd04e9d2	-0.03244955
152	0x3d98dd45	0.07464079
153	0xbc1036ee	-0.008802159
154	0x3d575ad5	0.05257686
155	0xbc8c7264	-0.01714439
156	0xbdcf4bc8	-0.10121876
157	0xbd21e7bb	-0.039527636
158	0x3d4a601d	0.049408067
159	0x3c4ee8d0	0.012628749
160	0x3be8744f	0.007093943
161	0x3ca408fb	0.020023813
162	0xbd9c5334	-0.07633057
163	0xbdb6e6af	-0.08930718
164	0xbd3a3f2a	-0.045470394
165	0xbdcdff5b	-0.10058471
166	0xbd842667	-0.06452637
167	0xbdbd288a	-0.09236248
168	0x3c98f5cb	0.01867189
169	0xbdc88c10	-0.0979234
170	0x3d36c046	0.04461696
171	0x3d82249d	0.0635464
172	0x3d6da9fc	0.058023438
173	0x3d55775d	0.052115787
174	0x38a5519d	7.883015e-05
175	0xbdff74a1	-0.12473417
176	0x3d0a4aa0	0.033762574
177	0x3d18971d	0.037253488
178	0x3c4ca2b0	0.01248996
179	0xbbb994de	-0.0056634983
180	0x3befc7b0	0.007317506
181	0x3ade3356	0.0016952555
182	0xbd855def	-0.06512057
183	0x3ce5562c	0.027995192
184	0xbd6b1f1b	-0.05740271
185	0x3c171c5d	0.009223071
186	0x3d88f323	0.06687
187	0x3d787627	0.060659554
188	0x3d8b87c8	0.068130076
189	0xbd9ee119	-0.07757778
190	0xbdb42bdb	-0.08797427
191	0x3d30a733	0.043128204
192	0x3da06894	0.07832447
193	0x3d9e190b	0.0771962
194	0xbd191b77	-0.03737971
195	0xbd7f9d02	-0.062405594
196	0xbcb9fe2b	-0.022704205
197	0xbdd777dc	-0.10520908
198	0x3cbcdf10	0.023055583
199	0xbdfdb8f4	-0.12388793
200	0xbc771a53	-0.01508196
201	0x3c401aa6	0.0117251035
202	0x3cd9aebc	0.026572578
203	0x3ca86792	0.020557199
204	0x3c8ef37f	0.017450092
205	0x3c8d8066	0.01727314
206	0x3c3ee7c7	0.01165194
207	0x3d5b2847	0.05350521
208	0xbd540d4c	-0.051770493
209	0x3cfcbc25	0.030851433
210	0x3cdd8c92	0.027044568
211	0x3d2ba7bf	0.041908022
212	0x3d01c25f	0.031679507
213	0x3cf57200	0.029961586
214	0x3d94de2b	0.07268938
215	0x3c98709f	0.01860839
216	0xbcfa0e29	-0.03052433
217	0xba986b05	-0.0011628574
218	0x3d3ec0cc	0.046570584
219	0xbd9c78b2	-0.07640208
220	0xbd8bf126	-0.06833105
221	0xbd5825ed	-0.052770544
222	0x3ce3c4c2	0.027803782
223	0xbcf79c61	-0.030225934
224	0x3dc8fe24	0.098140985
225	0x3d642d6a	0.055707373
226	0x3dc2b64d	0.09507427
227	0x3d6d3cd7	0.05791935
228	0xbda1e2cb	-0.079045855
229	0xbcb772df	-0.022393642
230	0xbd8e6fad	-0.06954894
231	0xbb0c2d7d	-0.0021389418
232	0xbd02ef62	-0.031966574
233	0x3dae5875	0.085129656
234	0xbd63ed4b	-0.055646222
235	0xbc3169be	-0.010828434
236	0xbd38445c	-0.044987068
237	0x3c8281e6	0.015931081
238	0xbc85d192	-0.016335282
239	0xbd8ec110	-0.069704175
240	0xbd85461e	-0.065075144
241	0x3d9a7960	0.07542682
242	0x3d1ff3b6	0.03905078
243	0x3d9f8b51	0.07790244
244	0xbd246beb	-0.04014198
245	0xbd8631d4	-0.06552473
246	0xbdb46868	-0.088089764
247	0xbd9bcc35	-0.07607309
248	0xbd34b9b6	-0.04412242
249	0xbd6d524d	-0.057939816
250	0x3d0f70aa	0.035019554
251	0x3dccd675	0.10001842
252	0xbd471b9d	-0.04861032
253	0xbd82e40d	-0.063911535
254	0x3d9118d0	0.07084811
255	0x3d9adfe4	0.07562235

features.2.bias f4 [32]
0	0xbd433d02	-0.047665603
1	0xbd4fbd87	-0.050717857
2	0x3b8da5b2	0.004322731
3	0xba1de39f	-0.0006022993
4	0xbdd3aa64	-0.10335234
5	0xbb87d7d6	-0.0041456027
6	0x3dec8437	0.115486555
7	0x3c93ba02	0.018033031
8	0xbdb529b3	-0.08845844
9	0x3bab16b7	0.0052212137
10	0x3d335d18	0.043789953
11	0x3d48411f	0.04889023
12	0x3ca1a232	0.019730661
13	0xbd17f4b5	-0.037098605
14	0xbcf807b1	-0.030277105
15	0x3d0cf68d	0.034414817
16	0xbc469ae6	-0.012121892
17	0xbc8efd2f	-0.017454712
18	0x3cb78294	0.022401132
19	0x3d7a8d3d	0.06116985
20	0xbba06532	-0.004894876
21	0xbda60ab9	-0.08107514
22	0x3d2a30b8	0.041550368
23	0xbd9ee592	-0.07758631
24	0xbcaef7a6	-0.021358322
25	0x3dbc6c82	0.09200384
26	0x3d7ad50c	0.061238334
27	0xbd1818c4	-0.037132993
28	0x3d673c9e	0.056454293
29	0xbd954b29	-0.07289726
30	0xbd082106	-0.03323462
31	0xbda7a51b	-0.08185788

features.4.weight f4 [64, 32, 3, 3]
0	0x3c5c8b0a	0.013460884
1	0x3cdc8916	0.026920836
2	0xbd5749d1	-0.05256063
3	0x3bc09b58	0.0058778934
4	0xbc329881	-0.010900618
5	0xbba019d0	-0.0048858896
6	0xbca7366f	-0.020411698
7	0xbd6741de	-0.0564593
8	0xbc0e8ea3	-0.008700999
9	0x3c8bec64	0.017080493
10	0xbbf26515	-0.007397304
11	0xbd2ab5d7	-0.041677322
12	0x3d014188	0.031556636
13	0x3d39cb68	0.04536
14	0x3d3585c3	0.04431702
15	0xbd3ad1d1	-0.045610253
16	0x3d561437	0.052265372
17	0x3c94d991	0.01817015
18	0xbd85481f	-0.06507897
19	0x3ce857ba	0.028362144
20	0xbd336124	-0.043793812
21	0x3caaf090	0.020866662
22	0x3cb5540c	0.022134803
23	0x3a9b8ad0	0.0011866931
24	0x3bdf65ae	0.006817541
25	0xbca31112	-0.0199056
26	0xbd2e0c49	-0.042492185
27	0xbd1dbb71	-0.038508836
28	0x3d01645a	0.031589843
29	0xbcff5058	-0.03116624
30	0xbcb7ba20	-0.022427619
31	0x3d24bcd4	0.040219143
32	0x3c6dfaf1	0.014525161
33	0xbb2a704f	-0.0026006883
34	0x3d378e0e	0.04481321
35	0xbd3e42c6	-0.0464504
36	0x3d1bbcc6	0.038021825
37	0x3d568f4f	0.052382763
38	0x3d41b745	0.04729392
39	0xbcbea136	-0.02327023
40	0x38a3705e	7.793376e-05
41	0x3d453987	0.048150565
42	0x3d806119	0.0626852
43	0x3d177f10	0.03698641
44	0xbd07e3e7	-0.03317633
45	0x3d60718b	0.054795783
46	0x3d718720	0.058966756
47	0xbc4ad8d4	-0.012380797
48	0x3d689a4f	0.056787785
49	0x3ce2727f	0.027642487
50	0x3d3dd7ca	0.04634837
51	0x3d0161ee	0.031587534
52	0x3d3c8369	0.04602376
53	0xbd4def8c	-0.050277278
54	0xbd0477c5	-0.032340784
55	0x3be77482	0.0070634494
56	0x3c9f8cae	0.019476261
57	0xbd1ac97e	-0.037789814
58	0xbc65d366	-0.014027452
59	0xbd954fda	-0.07290621
60	0xbd1c993c	-0.038232073
61	0xbcb8de5a	-0.022566963
62	0x3c5b2910	0.013376489
63	0xbaaad674	-0.0013033883
64	0x3d35f00d	0.044418383
65	0xbab2931c	-0.0013624164
66	0xbcbf09e5	-0.023320148
67	0x3d0d3ccd	0.034481812
68	0x3d320e59	0.043470714
69	0xbd35f7bf	-0.044425722
70	0x3b0383ca	0.0020067566
71	0x3c5cd979	0.013479584
72	0x3d11b858	0.035576195
73	0x3cd52ef0	0.026023358
74	0x3cd6f691	0.026240619
75	0xbd2f8c15	-0.042858202
76	0xbd667bd6	-0.056270443
77	0xbcc36a05	-0.023854265
78	0xbd24f564	-0.040273085
79	0x3cfbecd7	0.030752582
80	0x3c98f8a6	0.018673252
81	0xbbc81123	-0.0061055585
82	0x3c39052c	0.011292737
83	0x3c5b0ec8	0.013370223
84	0x3ceb28be	0.02870595
85	0x3d250730	0.040290058
86	0x3d0d941d	0.03456508
87	0x3d5681ec	0.052369997
88	0x3d5c1bb0	0.053737342
89	0x3c058ab0	0.008150741
90	0x3a0a37f7	0.00052726216
91	0xbc41647d	-0.011803743
92	0xbd54723e	-0.051866762
93	0x3b3fc56b	0.0029261957
94	0xbcc1d466	-0.02366085
95	0xbcc86aae	-0.024464931
96	0x3d1605db	0.036626678
97	0xbd462251	-0.04837257
98	0x3d1b5c6b	0.037929934
99	0x3c438392	0.011933224
100	0xbd43a1ed	-0.047761846
101	0xbccdff2f	-0.025146095
102	0xbd4a45e2	-0.04938305
103	0xbc687e23	-0.01419023
104	0xbd4c8e7e	-0.04994058
105	0x3cc007b4	0.023441173
106	0x3c601ad1	0.0136782685
107	0x3c0ee2dd	0.008721081
108	0xbc9ca68b	-0.019122383
109	0x3ce3cf37	0.027808769
110	0x3c14eda9	0.009089866
111	0xbcc8d547	-0.024515761
112	0xbc80e0c9	-0.015732186
113	0x3bcfbe11	0.0063397964
114	0x3b071c21	0.0020616131
115	0x3c116cab	0.008876006
116	0x3d191164	0.0373701
117	0xbd1ab7e8	-0.037773043
118	0xbb12badf	-0.0022389216
119	0xbc98215b	-0.018570593
120	0xbd3fff73	-0.046874475
121	0xbcaa4a6e	-0.020787444
122	0x3d02c59f	0.031926747
123	0xbc2345a4	-0.009965334
124	0x3bb4f379	0.0055221883
125	0x3cd75ced	0.026289428
126	0x3d28db05	0.0412245
127	0xbc782a03	-0.015146735
128	0xbd728c43	-0.059215795
129	0xbcc400af	-0.023926107
130	0x3a4b420c	0.0007753677
131	0x3cbfdd9a	0.023421098
132	0x3ccf1ca2	0.025282208
133	0xbd05f37c	-0.032702908
134	0xbcf00cec	-0.029303037
135	0x3d07cc01	0.033153538
136	0x3d28103f	0.04103112
137	0xbd4862f3	-0.04892249
138	0xbd583e4e	-0.052793793
139	0xbccb9902	-0.024853233
140	0x3c837323	0.016046112
141	0xbd1c2793	-0.03812368
142	0xbd194370	-0.03741783
143	0x3cff98f3	0.031200862
144	0xbd8ceca4	-0.06881073
145	0xbd11087a	-0.035408475
146	0xbda7bf4e	-0.08190785
147	0xbce56f0f	-0.028007058
148	0xbd3c2415	-0.045932848
149	0x3c369fbb	0.011146481
150	0xbc949c38	-0.018140897
151	0xbc6147c1	-0.013750018
152	0x3d25bbd0	0.040462315
153	0xbc8c35ee	-0.01711556
154	0xbcef04ad	-0.029177034
155	0xbbce267a	-0.006291208
156	0xbd7992e5	-0.060931105
157	0x3c2bf95f	0.010496466
158	0x3c6c6bf7	0.014430038
159	0xbd617a6a	-0.055048384
160	0x3bddca90	0.006768532
161	0xbd14ad77	-0.03629824
162	0x3d122fd0	0.03569013
163	0xbbeb82d6	-0.0071872277
164	0x3aa08e29	0.0012249398
165	0x3c8a5308	0.016885296
166	0x3b5939fb	0.0033146131
167	0xbab38e0b	-0.0013698948
168	0xbc61da4a	-0.013784954
169	0xbb7597a8	-0.0037474427
170	0x3c3521d8	0.011055432
171	0xbd14fc3f	-0.036373373
172	0xbd1f57b3	-0.038901996
173	0xbd901a50	-0.07036269
174	0xbd40427a	-0.046938397
175	0xbd142360	-0.03616655
176	0xbc724e1c	-0.014789131
177	0xbc630000	-0.0138549805
178	0x3c6c707e	0.014431117
179	0xb9f3154c	-0.0004636444
180	0xbcafa44b	-0.021440646
181	0x3d75ebbd	0.06003927
182	0xbd1853dd	-0.037189353
183	0xbcbd7399	-0.02312641
184	0xbc566faf	-0.013088151
185	0x3b2ebca8	0.002666274
186	0xbc8510c9	-0.016243355
187	0x3d53c571	0.051701967
188	0x3ca8275f	0.020526586
189	0x3cbe74c6	0.023249041
190	0x3cefedac	0.029288135
191	0xbcf4c097	-0.02987699
192	0x3ca13a35	0.019681076
193	0x3d179a13	0.03701217
194	0xbd0b49ed	-0.034006048
195	0x3d2e12d6	0.042498432
196	0xbd0f2e3e	-0.03495621
197	0x3d152f36	0.036421977
198	0xbd4dc4f3	-0.050236654
199	0x3d7a890c	0.061165854
200	0xbcf7c7b2	-0.03024659
201	0x3ce01f7e	0.027358767
202	0x3b57c1e0	0.0032921955
203	0xbc92de0c	-0.017928146
204	0xbd56c7f8	-0.0524368
205	0x3ca4862e	0.020083513
206	0xbbd4b9bb	-0.0064918674
207	0xbd11753b	-0.03551219
208	0xbd33e8d5	-0.043923218
209	0x3d0ab6f4	0.033865884
210	0x3d68d964	0.056847945
211	0x3d3267a0	0.043555856
212	0xbbfb4154	-0.0076677
213	0x3cf8635e	0.03032082
214	0x3d65ca7a	0.0561013
215	0x3d34d44c	0.044147775
216	0x3d47207b	0.04861496
217	0xbd713e85	-0.058897514
218	0x3c9fa039	0.01948558
219	0x3d291223	0.041277062
220	0xbc7a7d98	-0.015288733
221	0xbd639832	-0.055565067
222	0xbcaa0dd6	-0.02075855
223	0x3d406313	0.046969485
224	0xbd416700	-0.04721737
225	0xbbbd3349	-0.005773936
226	0xbd1655c3	-0.036702882
227	0xbbc9df81	-0.006160677
228	0x3d7cc6b4	0.061712936
229	0x3d0dbb39	0.034602378
230	0x3a7a3fa6	0.00095462275
231	0xbd46ea69	-0.048563395
232	0xbd5f20d7	-0.054474678
233	0xbd703424	-0.058643475
234	0xbd34c9b9	-0.04413769
235	0xbd6d8855	-0.057991344
236	0xbd2c6c70	-0.0420956
237	0x3d42ce64	0.04756011
238	0xbd55bc9a	-0.052181818
239	0x3d642048	0.05569485
240	0xbcdca05a	-0.02693193
241	0xbd6a6b75	-0.057231385
242	0x3cf88eb0	0.030341476
243	0x3c02e6c7	0.007989592
244	0x3adbf80b	0.0016782297
245	0xbc042bf8	-0.008067124
246	0x3c3e370b	0.011609803
247	0xbcd5a252	-0.026078377
248	0xbcdbfd66	-0.026854228
249	0x3d48e574	0.04904695
250	0x3d3ba593	0.0458122
251	0xbd70e345	-0.05881049
252	0xbd16f81d	-0.036857713
253	0xbd1cb02a	-0.03825394
254	0xbd73a9d2	-0.059488125
255	0xbd898f3c	-0.06716773

features.4.bias f4 [64]
0	0xbc425fc6	-0.0118636545
1	0xbd1723f2	-0.036899514
2	0x3ba2f7d2	0.00497339
3	0x3cce0b84	0.025151975
4	0xbd0eefa5	-0.03489651
5	0xbcfd895d	-0.030949289
6	0x3cfe97fb	0.03107833
7	0xbd8ccff1	-0.06875599
8	0xbd858051	-0.06518615
9	0xbd58db61	-0.05294359
10	0x3d5f2dc8	0.05448702
11	0xbc8e3d99	-0.017363356
12	0x3dd52360	0.10407138
13	0x3daa2f2e	0.0830978
14	0xbd53f3c9	-0.051746164
15	0xbd44d5c4	-0.048055425
16	0x3ccc6917	0.024952454
17	0x3dccefdf	0.10006689
18	0xbda986cf	-0.08277666
19	0xbbb5d354	-0.005548874
20	0x3c0d753c	0.008633908
21	0xbcf30060	-0.029663265
22	0xbcf64116	-0.030060332
23	0x3bacb99a	0.005271149
24	0xbd8a193d	-0.06743095
25	0xbd4bab42	-0.04972387
26	0x3d7a270c	0.061072394
27	0x3da3f336	0.08005373
28	0x3da87055	0.08224551
29	0x3c1736d3	0.00922938
30	0xbd4246b6	-0.047430716
31	0x3d1729fd	0.036905278
32	0xbc45f28e	-0.012081755
33	0xbd83a47b	-0.064278565
34	0xbd4d1c00	-0.05007553
35	0x3d9f0e40	0.0776639
36	0x3cafe55e	0.021471675
37	0xbd0966f1	-0.03354544
38	0xbd22479d	-0.039619077
39	0x3b0512de	0.0020305435
40	0x3dc22adf	0.09480833
41	0xbc85ef48	-0.01634945
42	0xbd1eb961	-0.03875101
43	0x3ce5e7ee	0.028064694
44	0x3c6b87b8	0.01437562
45	0xbcccef72	-0.02501652
46	0xbd297904	-0.041375175
47	0xbbec59e0	-0.0072128624
48	0x3cb1a898	0.021686837
49	0x3d72e73d	0.059302557
50	0x3d9f1599	0.07767791
51	0xbd8ae61e	-0.067821726
52	0xbd2e8504	-0.042607322
53	0x3c633e86	0.013869887
54	0xbd1dc88a	-0.038521327
55	0x3b7ed6ca	0.0038885348
56	0xbc666b91	-0.014063732
57	0x3ce46471	0.027879925
58	0xbd17a27c	-0.03702019
59	0x3d8327e5	0.06404094
60	0x3d310a18	0.043222517
61	0xbd920925	-0.071306504
62	0xbd31a94b	-0.04337434
63	0xbcd68e2d	-0.026190842

head.0.weight f4 [32, 64]
0	0x3da747c9	0.08167989
1	0xbdd03773	-0.10166826
2	0xbda93b3b	-0.082632504
3	0x3c84f792	0.016231332
4	0xbcf81607	-0.030283941
5	0x3c6cf069	0.014461615
6	0xbdee3504	-0.11631206
7	0xbca62f7b	-0.020286312
8	0xbddf094f	-0.10890447
9	0xbd258190	-0.040406764
10	0xbd2013a6	-0.03908124
11	0x3ccba237	0.024857624
12	0x3dd317e0	0.10307288
13	0x3cb72a2d	0.022358978
14	0x3dedc421	0.11609674
15	0xbde29499	-0.11063499
16	0x3da576c0	0.080792904
17	0x3c7573d2	0.014981227
18	0x3d0bbada	0.034113742
19	0x3da596d7	0.08085411
20	0x3d96baf6	0.07359879
21	0x3c129c1c	0.008948352
22	0x3c714b81	0.014727474
23	0x3d6f525e	0.05842816
24	0x3d55a12e	0.052155666
25	0xbca8ae80	-0.02059102
26	0xbc070654	-0.008241255
27	0x3da6d060	0.08145213
28	0x3e02ea4b	0.12784688
29	0x3dc2cf23	0.095121644
30	0xbd8f1fee	-0.06988512
31	0xbddc2992	-0.107501164
32	0xbd34cbdc	-0.044139728
33	0x3dc852bf	0.097814076
34	0x3cf84693	0.03030709
35	0x3c44138a	0.011967549
36	0xbd905e6b	-0.07049259
37	0xbcae4632	-0.021273706
38	0xbd13cc56	-0.03608354
39	0x3d70c4c5	0.058781404
40	0x3de4fb67	0.11180764
41	0xbe0edd74	-0.13951665
42	0x3db77a1e	0.08958839
43	0x389b4794	7.4043084e-05
44	0x3db63dfb	0.088985406
45	0xbd1c50a8	-0.038162857
46	0xbe05f008	-0.13079846
47	0xbd3cf743	-0.046134245
48	0x3c7f2db8	0.015574865
49	0xbdb7581a	-0.08952351
50	0xbdc299a4	-0.09501961
51	0xbd925481	-0.07145024
52	0xbdef80c1	-0.1169448
53	0x3da97d1a	0.08275814
54	0xbd9cf1ac	-0.07663283
55	0xbdb268db	-0.08711406
56	0x3dc1962e	0.094524726
57	0xbd404b44	-0.04694678
58	0x3d432f27	0.04765239
59	0xbd451bdf	-0.048122283
60	0x3d95af96	0.07308881
61	0xbe22b241	-0.15888311
62	0xbdbdd412	-0.09268965
63	0x3d46f6f3	0.048575353
64	0xbbc5cb62	-0.006036208
65	0xbdd312ff	-0.103063576
66	0x3ca775e6	0.02044196
67	0x3dbe1b60	0.09282565
68	0xbd2d4861	-0.042305354
69	0xbb2a8298	-0.0026017781
70	0x3cfb9b2d	0.030713642
71	0xbd4a0739	-0.049323294
72	0x3d9eca9d	0.07753489
73	0xbdac6efe	-0.084196076
74	0xbd6baa13	-0.057535242
75	0x3d321035	0.043472487
76	0xbd09c37b	-0.03363369
77	0xbdc58a44	-0.09645513
78	0x3d80c5ca	0.06287725
79	0x3de007cc	0.10938987
80	0x3d89090a	0.06691177
81	0x3da926e1	0.08259369
82	0xbd28062c	-0.04102151
83	0x3d9c4231	0.076298125
84	0xbd2ec30d	-0.042666484
85	0xbdb9850e	-0.09058581
86	0x3dd71f2f	0.10503995
87	0x3ddbc341	0.10730601
88	0xbdfad911	-0.122484334
89	0x3d5d322a	0.05400292
90	0xbbdbd385	-0.0067085647
91	0xbdf47134	-0.11935654
92	0xbdf1f870	-0.11814964
93	0x3dd90201	0.10596085
94	0xbd44e900	-0.04807377
95	0xbd8db26d	-0.06918798
96	0x3ad9faf2	0.0016630574
97	0x3a4759f3	0.0007604651
98	0x3d76633d	0.060153235
99	0xbc2ca643	-0.010537687
100	0xbda170dc	-0.07882854
101	0xbcb0a4b1	-0.021562906
102	0x3d9baf28	0.07601768
103	0xbd7e8cdd	-0.062146056
104	0xbdf0d3bc	-0.11759135
105	0x3d8d692a	0.06904824
106	0xbb102826	-0.0021996587
107	0x3de32415	0.110908665
108	0x3d2442c4	0.040102735
109	0x3d9b0b19	0.07570476
110	0x3dc4f6b0	0.096173644
111	0xbbf353dc	-0.0074257683
112	0x3d7b05db	0.06128488
113	0x3cf5c01d	0.029998833
114	0xbdd56b50	-0.10420859
115	0x3dcf03df	0.1010816
116	0xbdb027cd	-0.086013414
117	0x3d054ff5	0.032546956
118	0x3ca2a544	0.019854195
119	0x3dd93694	0.10606113
120	0xbd16627a	-0.03671501
121	0xbd58cd61	-0.05293024
122	0xbde7b323	-0.113134645
123	0x3de2f9f3	0.1108283
124	0x3d378be7	0.044811156
125	0x3ce3bc94	0.027799882
126	0xbdc67f27	-0.09692221
127	0xbca3b3bd	-0.019983167
128	0xbd90777c	-0.0705404
129	0x3c58c7da	0.013231242
130	0x3d66a3a9	0.056308422
131	0x3d82fbc9	0.063956805
132	0xbd8e225e	-0.06940149
133	0xbddd3098	-0.10800284
134	0xbd423559	-0.047414158
135	0xbc1569ed	-0.009119493
136	0xbddece0b	-0.10879143
137	0xbdf6a5e7	-0.12043362
138	0x3dd32989	0.103106566
139	0xbdad0840	-0.08448839
140	0x3d6f2690	0.058386385
141	0x3e0b1487	0.1358205
142	0xbdd84615	-0.10560242
143	0xbdb09ce5	-0.08623675
144	0xbdc2da99	-0.095143504
145	0x3db9bd42	0.09069301
146	0x3d45f79f	0.048331853
147	0xbcfd0df4	-0.030890442
148	0xbd64036c	-0.055667326
149	0x3c99bd78	0.018767104
150	0xbd3e6a55	-0.046488125
151	0x3d16ec99	0.03684673
152	0x3e008b26	0.12553081
153	0x3d840df6	0.06447975
154	0x3d8dc947	0.06923156
155	0xbd8fda7f	-0.07024097
156	0x3e0b5d41	0.13609792
157	0xbd7473b1	-0.059680644
158	0xbcd3775d	-0.025813753
159	0x3cd1ae0d	0.02559569
160	0x3d8c3398	0.06845778
161	0xbc9a284a	-0.01881804
162	0x3dd1ca49	0.10243661
163	0xbcd71b96	-0.026258271
164	0x3e1d3550	0.15352368
165	0x3c4fee1a	0.012691045
166	0xbd936e76	-0.07198803
167	0xbe06f018	-0.13177526
168	0x3e0d3c50	0.13792539
169	0x3d5e3cbd	0.054257143
170	0x3d9f659a	0.07783051
171	0x3dd3e44f	0.10346281
172	0x3d9fe7e1	0.07807899
173	0x3cd4bdd4	0.025969423
174	0xbd5ec4a2	-0.054386742
175	0xbdd715b6	-0.10502188
176	0x3d9806e5	0.0742319
177	0x3ca5f76e	0.020259585
178	0x3e3e0595	0.18556817
179	0xbd5d1ede	-0.053984515
180	0xbd5a73af	-0.05333298
181	0xbdb14845	-0.086563624
182	0xbcd7dcfb	-0.026350489
183	0xbde19477	-0.110146455
184	0x3d08f58f	0.033437308
185	0xbbe856da	-0.0070904316
186	0xbb83139d	-0.004000141
187	0x3d9795ba	0.07401605
188	0xbad8e103	-0.0016546551
189	0x3de5d394	0.11221996
190	0x3d8a249d	0.06745265
191	0xbe001b1d	-0.12510343
192	0xbdac8914	-0.08424583
193	0x3de51935	0.111864485
194	0xbdef25e9	-0.11677153
195	0xbd6523c0	-0.055942297
196	0xbd9d86f6	-0.076917574
197	0xbbd2f9a6	-0.006438452
198	0xbd9c9159	-0.0764491
199	0x3d3de7ea	0.04636375
200	0x3a8f4986	0.0010931946
201	0xbc5e2d71	-0.013560639
202	0x3deef408	0.11667639
203	0x3c648c9e	0.013949541
204	0x3d614e98	0.055006593
205	0x3d9dd65d	0.07706902
206	0xbbd56c44	-0.0065131504
207	0xbdb85e47	-0.09002357
208	0xbd90b6e2	-0.07066132
209	0xbd07b732	-0.033133693
210	0x3ba56af7	0.0050481516
211	0x3d371055	0.04469331
212	0x3c554c27	0.013018644
213	0xbc5d5298	-0.013508461
214	0xbd8bd89c	-0.06828424
215	0x3d4cd366	0.050006293
216	0xbdedd63b	-0.11613127
217	0xbd92b61d	-0.071636416
218	0x3c9a92a1	0.018868746
219	0xbd58e1d6	-0.05294975
220	0x3b9c892e	0.0047770953
221	0x3de30ec4	0.11086801
222	0x3d333684	0.043753162
223	0x3de4db33	0.111746214
224	0x3db2b44b	0.087257944
225	0xbe000798	-0.12502897
226	0xbd610ff2	-0.054946847
227	0x3d81ecc2	0.06343986
228	0x3dba18bf	0.09086751
229	0xbd92901c	-0.07156393
230	0x3d040137	0.03222772
231	0xbd26f0a6	-0.040756844
232	0xbd053562	-0.032521613
233	0x3d8c45fc	0.06849286
234	0x3db4dab2	0.08830775
235	0xbdd20886	-0.10255532
236	0x3d944d1c	0.0724127
237	0x3dd374f3	0.10325041
238	0x3dc4913f	0.09598016
239	0xbe060c2b	-0.13090579
240	0x3dc34188	0.095339835
241	0x3cc1b162	0.023644153
242	0xbd61d684	-0.05513622
243	0x3ce465c9	0.027880566
244	0x3c72d4a0	0.014821202
245	0x3dc23a2a	0.0948375
246	0xbd8627bb	-0.06550547
247	0x3d8916d2	0.06693806
248	0x3d94c24f	0.07263624
249	0xbd794373	-0.06085534
250	0x3d838c7b	0.06423279
251	0xbd2d73ac	-0.04234664
252	0xbdc928bb	-0.09822222
253	0x3dac33fe	0.08408354
254	0x3d0dd794	0.03462942
255	0xbdb4971b	-0.088178836

head.0.bias f4 [32]
0	0xbda27535	-0.07932512
1	0xbd96d748	-0.073652804
2	0xbde54480	-0.11194706
3	0xbdffa734	-0.12483063
4	0xbe09dc5f	-0.13462971
5	0xbd83e133	-0.06439438
6	0x3d98b873	0.07457056
7	0x3d6abe88	0.05731061
8	0x3e01bf5e	0.12670657
9	0x3dc9e6b7	0.098584585
10	0x3dbc67a5	0.09199456
11	0x3d82e1cb	0.06390723
12	0x3de7e046	0.11322074
13	0x3e0e28ad	0.13882704
14	0x3d848b7c	0.06471917
15	0x3d18f2f0	0.03734106
16	0x3e1fc3b3	0.15601997
17	0xbcfb4233	-0.030671215
18	0x3de72fec	0.11288437
19	0xbdaba5c4	-0.08381227
20	0xbdf2ec31	-0.11861456
21	0xbe117dd3	-0.14208154
22	0xbde750bd	-0.112946965
23	0x3cb56f8a	0.022147913
24	0x3e1fd7a3	0.15609603
25	0x3e16de4d	0.14733239
26	0xbda6ec56	-0.08150546
27	0xbdc28ae1	-0.09499145
28	0x3df6a756	0.120436355
29	0xbdededf1	-0.11617649
30	0x3d9a091e	0.0752127
31	0xbc310e0e	-0.010806574

head.2.weight f4 [2, 32]
0	0xbd7cfbf7	-0.06176373
1	0x3d5f47fe	0.054512016
2	0xbe0fe2bd	-0.14051338
3	0x3d1cf2e4	0.038317576
4	0xbccec364	-0.025239654
5	0xbe314cc0	-0.17314434
6	0xbdba7afb	-0.09105488
7	0x3c63a5c7	0.013894505
8	0xbd781326	-0.060565136
9	0x3dd19916	0.10234277
10	0xbe1024d7	-0.14076553
11	0x3d638b78	0.05555293
12	0xbdca3f82	-0.098753944
13	0xbd9a820d	-0.075443365
14	0x3cbd6058	0.02311723
15	0xbd4e8526	-0.05041995
16	0xbe08efcb	-0.13372724
17	0x3d22e83a	0.03977225
18	0x3d623ac8	0.05523184
19	0xbe1c45a4	-0.15260941
20	0xbacad7ae	-0.0015475655
21	0xbd8dd798	-0.06925887
22	0x3e13cc1a	0.14433327
23	0x3dedcc56	0.116112396
24	0xbd9c928c	-0.07645139
25	0xbcae60e1	-0.02128643
26	0xbdcd915d	-0.100374915
27	0x3db45ad8	0.088063896
28	0xbdeb05b4	-0.11475697
29	0x3dd51e43	0.104061626
30	0x3d3b84db	0.045780998
31	0x3d0723a5	0.032992978
32	0x3d896e2a	0.06710465
33	0x3e172708	0.14760983
34	0x3e309db8	0.17247665
35	0xbdeb5956	-0.11491649
36	0x3c86fc2d	0.016477669
37	0x3e076851	0.13223387
38	0x3da874e1	0.08225418
39	0x3d2269c3	0.039651643
40	0xbe6cc784	-0.23122984
41	0xbe0c3e17	-0.1369556
42	0xbe72e137	-0.23718725
43	0xbe371bda	-0.17881718
44	0xbe37d909	-0.17953886
45	0xbdd5e410	-0.1044389
46	0xbe0b79cd	-0.13620682
47	0xbe5aeebf	-0.21380137
48	0xbe22c114	-0.15893966
49	0xbe2cb5d1	-0.16866232
50	0xbe0a67d0	-0.13516164
51	0xbd8a629c	-0.067570895
52	0xbc8b3611	-0.016993554
53	0x3943c04b	0.00018668284
54	0x3ddca568	0.10773736
55	0xbd210868	-0.039314657
56	0xbd99826b	-0.074955784
57	0xbe083e92	-0.13305119
58	0x3ddcd028	0.1078189
59	0xbd600d2a	-0.054700054
60	0xbd907ebe	-0.07055424
61	0xbcada31f	-0.021195946
62	0x3d85f24c	0.06540355
63	0x3cbe5877	0.023235543

head.2.bias f4 [2]
0	0x3dd018a7	0.10160952
1	0xbd9abf68	-0.07556039
